…
evaluation = dict(interval=10001, metric='mIoU')
channels = 512
base_class = [
    0, 1, 2, 3, 4, 5, 6, 7, 8, 9, 10, 11, 12, 13, 14, 15, 16, 17, 18, 19, 20
]
novel_class = []
both_class = [
    0, 1, 2, 3, 4, 5, 6, 7, 8, 9, 10, 11, 12, 13, 14, 15, 16, 17, 18, 19, 20
]
num_classes = 21
pretrained = '/media/data/ziqin/pretrained/resnet/resnet50-19c8e357.pth'
work_dir = './work_dirs/voc_rn50'
gpu_ids = range(0, 1)

2023-07-21 02:04:44,737 - mmseg - INFO - Loaded 10582 images
2023-07-21 02:04:45,129 - mmseg - INFO - #Params: 41613096
2023-07-21 02:04:45,359 - mmseg - INFO - FewSegViT(
  (backbone): LoRAResNet(
    (conv1): Conv2d(3, 64, kernel_size=(7, 7), stride=(2, 2), padding=(3, 3), bias=False)
    (bn1): SyncBatchNorm(64, eps=1e-05, momentum=0.1, affine=True, track_running_stats=True)
    (relu1): ReLU(inplace=True)
    (maxpool): MaxPool2d(kernel_size=3, stride=2, padding=1, dilation=1, ceil_mode=False)
    (layer1): Sequential(
      (0): LoRABottleneck(
        (conv1): Conv2d(64, 64, kernel_size=(1, 1), stride=(1, 1), bias=False)
        (bn1): SyncBatchNorm(64, eps=1e-05, momentum=0.1, affine=True, track_running_stats=True)
        (conv2): Conv2d(64, 64, kernel_size=(3, 3), stride=(1, 1), padding=(1, 1), bias=False)
        (bn2): SyncBatchNorm(64, eps=1e-05, momentum=0.1, affine=True, track_running_stats=True)
        (conv3): Conv2d(64, 256, kernel_size=(1, 1), stride=(1, 1), bias=False)
        (bn3): SyncBatchNorm(256, eps=1e-05, momentum=0.1, affine=True, track_running_stats=True)
        (relu): ReLU(inplace=True)
        (downsample): Sequential(
          (0): Conv2d(64, 256, kernel_size=(1, 1), stride=(1, 1), bias=False)
          (1): SyncBatchNorm(256, eps=1e-05, momentum=0.1, affine=True, track_running_stats=True)
        )
        (lora_down_1): Conv2d(64, 4, kernel_size=(1, 1), stride=(1, 1), bias=False)
        (lora_up_1): Conv2d(4, 64, kernel_size=(1, 1), stride=(1, 1), bias=False)
        (lora_down_2): Conv2d(64, 4, kernel_size=(3, 3), stride=(1, 1), padding=(1, 1), bias=False)
        (lora_up_2): Conv2d(4, 64, kernel_size=(1, 1), stride=(1, 1), bias=False)
        (lora_down_3): Conv2d(64, 4, kernel_size=(1, 1), stride=(1, 1), bias=False)
        (lora_up_3): Conv2d(4, 256, kernel_size=(1, 1), stride=(1, 1), bias=False)
        (dropout): Dropout(p=0.1, inplace=False)
        (selector): Identity()
      )
      (1): LoRABottleneck(
        (conv1): Conv2d(256, 64, kernel_size=(1, 1), stride=(1, 1), bias=False)
        (bn1): SyncBatchNorm(64, eps=1e-05, momentum=0.1, affine=True, track_running_stats=True)
        (conv2): Conv2d(64, 64, kernel_size=(3, 3), stride=(1, 1), padding=(1, 1), bias=False)
        (bn2): SyncBatchNorm(64, eps=1e-05, momentum=0.1, affine=True, track_running_stats=True)
        (conv3): Conv2d(64, 256, kernel_size=(1, 1), stride=(1, 1), bias=False)
        (bn3): SyncBatchNorm(256, eps=1e-05, momentum=0.1, affine=True, track_running_stats=True)
        (relu): ReLU(inplace=True)
        (lora_down_1): Conv2d(256, 4, kernel_size=(1, 1), stride=(1, 1), bias=False)
        (lora_up_1): Conv2d(4, 64, kernel_size=(1, 1), stride=(1, 1), bias=False)
        (lora_down_2): Conv2d(64, 4, kernel_size=(3, 3), stride=(1, 1), padding=(1, 1), bias=False)
        (lora_up_2): Conv2d(4, 64, kernel_size=(1, 1), stride=(1, 1), bias=False)
        (lora_down_3): Conv2d(64, 4, kernel_size=(1, 1), stride=(1, 1), bias=False)
        (lora_up_3): Conv2d(4, 256, kernel_size=(1, 1), stride=(1, 1), bias=False)
        (dropout): Dropout(p=0.1, inplace=False)
        (selector): Identity()
      )
      (2): LoRABottleneck(
        (conv1): Conv2d(256, 64, kernel_size=(1, 1), stride=(1, 1), bias=False)
        (bn1): SyncBatchNorm(64, eps=1e-05, momentum=0.1, affine=True, track_running_stats=True)
        (conv2): Conv2d(64, 64, kernel_size=(3, 3), stride=(1, 1), padding=(1, 1), bias=False)
        (bn2): SyncBatchNorm(64, eps=1e-05, momentum=0.1, affine=True, track_running_stats=True)
        (conv3): Conv2d(64, 256, kernel_size=(1, 1), stride=(1, 1), bias=False)
        (bn3): SyncBatchNorm(256, eps=1e-05, momentum=0.1, affine=True, track_running_stats=True)
        (relu): ReLU(inplace=True)
        (lora_down_1): Conv2d(256, 4, kernel_size=(1, 1), stride=(1, 1), bias=False)
        (lora_up_1): Conv2d(4, 64, kernel_size=(1, 1), stride=(1, 1), bias=False)
        (lora_down_2): Conv2d(64, 4, kernel_size=(3, 3), stride=(1, 1), padding=(1, 1), bias=False)
        (lora_up_2): Conv2d(4, 64, kernel_size=(1, 1), stride=(1, 1), bias=False)
        (lora_down_3): Conv2d(64, 4, kernel_size=(1, 1), stride=(1, 1), bias=False)
        (lora_up_3): Conv2d(4, 256, kernel_size=(1, 1), stride=(1, 1), bias=False)
        (dropout): Dropout(p=0.1, inplace=False)
        (selector): Identity()
      )
    )
    (layer2): Sequential(
      (0): LoRABottleneck(
        (conv1): Conv2d(256, 128, kernel_size=(1, 1), stride=(1, 1), bias=False)
        (bn1): SyncBatchNorm(128, eps=1e-05, momentum=0.1, affine=True, track_running_stats=True)
        (conv2): Conv2d(128, 128, kernel_size=(3, 3), stride=(2, 2), padding=(1, 1), bias=False)
        (bn2): SyncBatchNorm(128, eps=1e-05, momentum=0.1, affine=True, track_running_stats=True)
        (conv3): Conv2d(128, 512, kernel_size=(1, 1), stride=(1, 1), bias=False)
        (bn3): SyncBatchNorm(512, eps=1e-05, momentum=0.1, affine=True, track_running_stats=True)
        (relu): ReLU(inplace=True)
        (downsample): Sequential(
          (0): Conv2d(256, 512, kernel_size=(1, 1), stride=(2, 2), bias=False)
          (1): SyncBatchNorm(512, eps=1e-05, momentum=0.1, affine=True, track_running_stats=True)
        )
        (lora_down_1): Conv2d(256, 4, kernel_size=(1, 1), stride=(1, 1), bias=False)
        (lora_up_1): Conv2d(4, 128, kernel_size=(1, 1), stride=(1, 1), bias=False)
        (lora_down_2): Conv2d(128, 4, kernel_size=(3, 3), stride=(2, 2), padding=(1, 1), bias=False)
        (lora_up_2): Conv2d(4, 128, kernel_size=(1, 1), stride=(1, 1), bias=False)
        (lora_down_3): Conv2d(128, 4, kernel_size=(1, 1), stride=(1, 1), bias=False)
        (lora_up_3): Conv2d(4, 512, kernel_size=(1, 1), stride=(1, 1), bias=False)
        (dropout): Dropout(p=0.1, inplace=False)
        (selector): Identity()
      )
      (1): LoRABottleneck(
        (conv1): Conv2d(512, 128, kernel_size=(1, 1), stride=(1, 1), bias=False)
        (bn1): SyncBatchNorm(128, eps=1e-05, momentum=0.1, affine=True, track_running_stats=True)
        (conv2): Conv2d(128, 128, kernel_size=(3, 3), stride=(1, 1), padding=(1, 1), bias=False)
        (bn2): SyncBatchNorm(128, eps=1e-05, momentum=0.1, affine=True, track_running_stats=True)
        (conv3): Conv2d(128, 512, kernel_size=(1, 1), stride=(1, 1), bias=False)
        (bn3): SyncBatchNorm(512, eps=1e-05, momentum=0.1, affine=True, track_running_stats=True)
        (relu): ReLU(inplace=True)
        (lora_down_1): Conv2d(512, 4, kernel_size=(1, 1), stride=(1, 1), bias=False)
        (lora_up_1): Conv2d(4, 128, kernel_size=(1, 1), stride=(1, 1), bias=False)
        (lora_down_2): Conv2d(128, 4, kernel_size=(3, 3), stride=(1, 1), padding=(1, 1), bias=False)
        (lora_up_2): Conv2d(4, 128, kernel_size=(1, 1), stride=(1, 1), bias=False)
        (lora_down_3): Conv2d(128, 4, kernel_size=(1, 1), stride=(1, 1), bias=False)
        (lora_up_3): Conv2d(4, 512, kernel_size=(1, 1), stride=(1, 1), bias=False)
        (dropout): Dropout(p=0.1, inplace=False)
        (selector): Identity()
      )
      (2): LoRABottleneck(
        (conv1): Conv2d(512, 128, kernel_size=(1, 1), stride=(1, 1), bias=False)
        (bn1): SyncBatchNorm(128, eps=1e-05, momentum=0.1, affine=True, track_running_stats=True)
        (conv2): Conv2d(128, 128, kernel_size=(3, 3), stride=(1, 1), padding=(1, 1), bias=False)
        (bn2): SyncBatchNorm(128, eps=1e-05, momentum=0.1, affine=True, track_running_stats=True)
        (conv3): Conv2d(128, 512, kernel_size=(1, 1), stride=(1, 1), bias=False)
        (bn3): SyncBatchNorm(512, eps=1e-05, momentum=0.1, affine=True, track_running_stats=True)
        (relu): ReLU(inplace=True)
        (lora_down_1): Conv2d(512, 4, kernel_size=(1, 1), stride=(1, 1), bias=False)
        (lora_up_1): Conv2d(4, 128, kernel_size=(1, 1), stride=(1, 1), bias=False)
        (lora_down_2): Conv2d(128, 4, kernel_size=(3, 3), stride=(1, 1), padding=(1, 1), bias=False)
        (lora_up_2): Conv2d(4, 128, kernel_size=(1, 1), stride=(1, 1), bias=False)
        (lora_down_3): Conv2d(128, 4, kernel_size=(1, 1), stride=(1, 1), bias=False)
        (lora_up_3): Conv2d(4, 512, kernel_size=(1, 1), stride=(1, 1), bias=False)
        (dropout): Dropout(p=0.1, inplace=False)
        (selector): Identity()
      )
      (3): LoRABottleneck(
        (conv1): Conv2d(512, 128, kernel_size=(1, 1), stride=(1, 1), bias=False)
        (bn1): SyncBatchNorm(128, eps=1e-05, momentum=0.1, affine=True, track_running_stats=True)
        (conv2): Conv2d(128, 128, kernel_size=(3, 3), stride=(1, 1), padding=(1, 1), bias=False)
        (bn2): SyncBatchNorm(128, eps=1e-05, momentum=0.1, affine=True, track_running_stats=True)
        (conv3): Conv2d(128, 512, kernel_size=(1, 1), stride=(1, 1), bias=False)
        (bn3): SyncBatchNorm(512, eps=1e-05, momentum=0.1, affine=True, track_running_stats=True)
        (relu): ReLU(inplace=True)
        (lora_down_1): Conv2d(512, 4, kernel_size=(1, 1), stride=(1, 1), bias=False)
        (lora_up_1): Conv2d(4, 128, kernel_size=(1, 1), stride=(1, 1), bias=False)
        (lora_down_2): Conv2d(128, 4, kernel_size=(3, 3), stride=(1, 1), padding=(1, 1), bias=False)
        (lora_up_2): Conv2d(4, 128, kernel_size=(1, 1), stride=(1, 1), bias=False)
        (lora_down_3): Conv2d(128, 4, kernel_size=(1, 1), stride=(1, 1), bias=False)
        (lora_up_3): Conv2d(4, 512, kernel_size=(1, 1), stride=(1, 1), bias=False)
        (dropout): Dropout(p=0.1, inplace=False)
        (selector): Identity()
      )
    )
    (layer3): Sequential(
      (0): LoRABottleneck(
        (conv1): Conv2d(512, 256, kernel_size=(1, 1), stride=(1, 1), bias=False)
        (bn1): SyncBatchNorm(256, eps=1e-05, momentum=0.1, affine=True, track_running_stats=True)
        (conv2): Conv2d(256, 256, kernel_size=(3, 3), stride=(2, 2), padding=(1, 1), bias=False)
        (bn2): SyncBatchNorm(256, eps=1e-05, momentum=0.1, affine=True, track_running_stats=True)
        (conv3): Conv2d(256, 1024, kernel_size=(1, 1), stride=(1, 1), bias=False)
        (bn3): SyncBatchNorm(1024, eps=1e-05, momentum=0.1, affine=True, track_running_stats=True)
        (relu): ReLU(inplace=True)
        (downsample): Sequential(
          (0): Conv2d(512, 1024, kernel_size=(1, 1), stride=(2, 2), bias=False)
          (1): SyncBatchNorm(1024, eps=1e-05, momentum=0.1, affine=True, track_running_stats=True)
        )
        (lora_down_1): Conv2d(512, 4, kernel_size=(1, 1), stride=(1, 1), bias=False)
        (lora_up_1): Conv2d(4, 256, kernel_size=(1, 1), stride=(1, 1), bias=False)
        (lora_down_2): Conv2d(256, 4, kernel_size=(3, 3), stride=(2, 2), padding=(1, 1), bias=False)
        (lora_up_2): Conv2d(4, 256, kernel_size=(1, 1), stride=(1, 1), bias=False)
        (lora_down_3): Conv2d(256, 4, kernel_size=(1, 1), stride=(1, 1), bias=False)
        (lora_up_3): Conv2d(4, 1024, kernel_size=(1, 1), stride=(1, 1), bias=False)
        (dropout): Dropout(p=0.1, inplace=False)
        (selector): Identity()
      )
      (1): LoRABottleneck(
        (conv1): Conv2d(1024, 256, kernel_size=(1, 1), stride=(1, 1), bias=False)
        (bn1): SyncBatchNorm(256, eps=1e-05, momentum=0.1, affine=True, track_running_stats=True)
        (conv2): Conv2d(256, 256, kernel_size=(3, 3), stride=(1, 1), padding=(1, 1), bias=False)
        (bn2): SyncBatchNorm(256, eps=1e-05, momentum=0.1, affine=True, track_running_stats=True)
        (conv3): Conv2d(256, 1024, kernel_size=(1, 1), stride=(1, 1), bias=False)
        (bn3): SyncBatchNorm(1024, eps=1e-05, momentum=0.1, affine=True, track_running_stats=True)
        (relu): ReLU(inplace=True)
        (lora_down_1): Conv2d(1024, 4, kernel_size=(1, 1), stride=(1, 1), bias=False)
        (lora_up_1): Conv2d(4, 256, kernel_size=(1, 1), stride=(1, 1), bias=False)
        (lora_down_2): Conv2d(256, 4, kernel_size=(3, 3), stride=(1, 1), padding=(1, 1), bias=False)
        (lora_up_2): Conv2d(4, 256, kernel_size=(1, 1), stride=(1, 1), bias=False)
        (lora_down_3): Conv2d(256, 4, kernel_size=(1, 1), stride=(1, 1), bias=False)
        (lora_up_3): Conv2d(4, 1024, kernel_size=(1, 1), stride=(1, 1), bias=False)
        (dropout): Dropout(p=0.1, inplace=False)
        (selector): Identity()
      )
      (2): LoRABottleneck(
        (conv1): Conv2d(1024, 256, kernel_size=(1, 1), stride=(1, 1), bias=False)
        (bn1): SyncBatchNorm(256, eps=1e-05, momentum=0.1, affine=True, track_running_stats=True)
        (conv2): Conv2d(256, 256, kernel_size=(3, 3), stride=(1, 1), padding=(1, 1), bias=False)
        (bn2): SyncBatchNorm(256, eps=1e-05, momentum=0.1, affine=True, track_running_stats=True)
        (conv3): Conv2d(256, 1024, kernel_size=(1, 1), stride=(1, 1), bias=False)
        (bn3): SyncBatchNorm(1024, eps=1e-05, momentum=0.1, affine=True, track_running_stats=True)
        (relu): ReLU(inplace=True)
        (lora_down_1): Conv2d(1024, 4, kernel_size=(1, 1), stride=(1, 1), bias=False)
        (lora_up_1): Conv2d(4, 256, kernel_size=(1, 1), stride=(1, 1), bias=False)
        (lora_down_2): Conv2d(256, 4, kernel_size=(3, 3), stride=(1, 1), padding=(1, 1), bias=False)
        (lora_up_2): Conv2d(4, 256, kernel_size=(1, 1), stride=(1, 1), bias=False)
        (lora_down_3): Conv2d(256, 4, kernel_size=(1, 1), stride=(1, 1), bias=False)
        (lora_up_3): Conv2d(4, 1024, kernel_size=(1, 1), stride=(1, 1), bias=False)
        (dropout): Dropout(p=0.1, inplace=False)
        (selector): Identity()
      )
      (3): LoRABottleneck(
        (conv1): Conv2d(1024, 256, kernel_size=(1, 1), stride=(1, 1), bias=False)
        (bn1): SyncBatchNorm(256, eps=1e-05, momentum=0.1, affine=True, track_running_stats=True)
        (conv2): Conv2d(256, 256, kernel_size=(3, 3), stride=(1, 1), padding=(1, 1), bias=False)
        (bn2): SyncBatchNorm(256, eps=1e-05, momentum=0.1, affine=True, track_running_stats=True)
        (conv3): Conv2d(256, 1024, kernel_size=(1, 1), stride=(1, 1), bias=False)
        (bn3): SyncBatchNorm(1024, eps=1e-05, momentum=0.1, affine=True, track_running_stats=True)
        (relu): ReLU(inplace=True)
        (lora_down_1): Conv2d(1024, 4, kernel_size=(1, 1), stride=(1, 1), bias=False)
        (lora_up_1): Conv2d(4, 256, kernel_size=(1, 1), stride=(1, 1), bias=False)
        (lora_down_2): Conv2d(256, 4, kernel_size=(3, 3), stride=(1, 1), padding=(1, 1), bias=False)
        (lora_up_2): Conv2d(4, 256, kernel_size=(1, 1), stride=(1, 1), bias=False)
        (lora_down_3): Conv2d(256, 4, kernel_size=(1, 1), stride=(1, 1), bias=False)
        (lora_up_3): Conv2d(4, 1024, kernel_size=(1, 1), stride=(1, 1), bias=False)
        (dropout): Dropout(p=0.1, inplace=False)
        (selector): Identity()
      )
      (4): LoRABottleneck(
        (conv1): Conv2d(1024, 256, kernel_size=(1, 1), stride=(1, 1), bias=False)
        (bn1): SyncBatchNorm(256, eps=1e-05, momentum=0.1, affine=True, track_running_stats=True)
        (conv2): Conv2d(256, 256, kernel_size=(3, 3), stride=(1, 1), padding=(1, 1), bias=False)
        (bn2): SyncBatchNorm(256, eps=1e-05, momentum=0.1, affine=True, track_running_stats=True)
        (conv3): Conv2d(256, 1024, kernel_size=(1, 1), stride=(1, 1), bias=False)
        (bn3): SyncBatchNorm(1024, eps=1e-05, momentum=0.1, affine=True, track_running_stats=True)
        (relu): ReLU(inplace=True)
        (lora_down_1): Conv2d(1024, 4, kernel_size=(1, 1), stride=(1, 1), bias=False)
        (lora_up_1): Conv2d(4, 256, kernel_size=(1, 1), stride=(1, 1), bias=False)
        (lora_down_2): Conv2d(256, 4, kernel_size=(3, 3), stride=(1, 1), padding=(1, 1), bias=False)
        (lora_up_2): Conv2d(4, 256, kernel_size=(1, 1), stride=(1, 1), bias=False)
        (lora_down_3): Conv2d(256, 4, kernel_size=(1, 1), stride=(1, 1), bias=False)
        (lora_up_3): Conv2d(4, 1024, kernel_size=(1, 1), stride=(1, 1), bias=False)
        (dropout): Dropout(p=0.1, inplace=False)
        (selector): Identity()
      )
      (5): LoRABottleneck(
        (conv1): Conv2d(1024, 256, kernel_size=(1, 1), stride=(1, 1), bias=False)
        (bn1): SyncBatchNorm(256, eps=1e-05, momentum=0.1, affine=True, track_running_stats=True)
        (conv2): Conv2d(256, 256, kernel_size=(3, 3), stride=(1, 1), padding=(1, 1), bias=False)
        (bn2): SyncBatchNorm(256, eps=1e-05, momentum=0.1, affine=True, track_running_stats=True)
        (conv3): Conv2d(256, 1024, kernel_size=(1, 1), stride=(1, 1), bias=False)
        (bn3): SyncBatchNorm(1024, eps=1e-05, momentum=0.1, affine=True, track_running_stats=True)
        (relu): ReLU(inplace=True)
        (lora_down_1): Conv2d(1024, 4, kernel_size=(1, 1), stride=(1, 1), bias=False)
        (lora_up_1): Conv2d(4, 256, kernel_size=(1, 1), stride=(1, 1), bias=False)
        (lora_down_2): Conv2d(256, 4, kernel_size=(3, 3), stride=(1, 1), padding=(1, 1), bias=False)
        (lora_up_2): Conv2d(4, 256, kernel_size=(1, 1), stride=(1, 1), bias=False)
        (lora_down_3): Conv2d(256, 4, kernel_size=(1, 1), stride=(1, 1), bias=False)
        (lora_up_3): Conv2d(4, 1024, kernel_size=(1, 1), stride=(1, 1), bias=False)
        (dropout): Dropout(p=0.1, inplace=False)
        (selector): Identity()
      )
    )
    (layer4): Sequential(
      (0): LoRABottleneck(
        (conv1): Conv2d(1024, 512, kernel_size=(1, 1), stride=(1, 1), bias=False)
        (bn1): SyncBatchNorm(512, eps=1e-05, momentum=0.1, affine=True, track_running_stats=True)
        (conv2): Conv2d(512, 512, kernel_size=(3, 3), stride=(2, 2), padding=(1, 1), bias=False)
        (bn2): SyncBatchNorm(512, eps=1e-05, momentum=0.1, affine=True, track_running_stats=True)
        (conv3): Conv2d(512, 2048, kernel_size=(1, 1), stride=(1, 1), bias=False)
        (bn3): SyncBatchNorm(2048, eps=1e-05, momentum=0.1, affine=True, track_running_stats=True)
        (relu): ReLU(inplace=True)
        (downsample): Sequential(
          (0): Conv2d(1024, 2048, kernel_size=(1, 1), stride=(2, 2), bias=False)
          (1): SyncBatchNorm(2048, eps=1e-05, momentum=0.1, affine=True, track_running_stats=True)
        )
        (lora_down_1): Conv2d(1024, 4, kernel_size=(1, 1), stride=(1, 1), bias=False)
        (lora_up_1): Conv2d(4, 512, kernel_size=(1, 1), stride=(1, 1), bias=False)
        (lora_down_2): Conv2d(512, 4, kernel_size=(3, 3), stride=(2, 2), padding=(1, 1), bias=False)
        (lora_up_2): Conv2d(4, 512, kernel_size=(1, 1), stride=(1, 1), bias=False)
        (lora_down_3): Conv2d(512, 4, kernel_size=(1, 1), stride=(1, 1), bias=False)
        (lora_up_3): Conv2d(4, 2048, kernel_size=(1, 1), stride=(1, 1), bias=False)
        (dropout): Dropout(p=0.1, inplace=False)
        (selector): Identity()
      )
      (1): LoRABottleneck(
        (conv1): Conv2d(2048, 512, kernel_size=(1, 1), stride=(1, 1), bias=False)
        (bn1): SyncBatchNorm(512, eps=1e-05, momentum=0.1, affine=True, track_running_stats=True)
        (conv2): Conv2d(512, 512, kernel_size=(3, 3), stride=(1, 1), padding=(1, 1), bias=False)
        (bn2): SyncBatchNorm(512, eps=1e-05, momentum=0.1, affine=True, track_running_stats=True)
        (conv3): Conv2d(512, 2048, kernel_size=(1, 1), stride=(1, 1), bias=False)
        (bn3): SyncBatchNorm(2048, eps=1e-05, momentum=0.1, affine=True, track_running_stats=True)
        (relu): ReLU(inplace=True)
        (lora_down_1): Conv2d(2048, 4, kernel_size=(1, 1), stride=(1, 1), bias=False)
        (lora_up_1): Conv2d(4, 512, kernel_size=(1, 1), stride=(1, 1), bias=False)
        (lora_down_2): Conv2d(512, 4, kernel_size=(3, 3), stride=(1, 1), padding=(1, 1), bias=False)
        (lora_up_2): Conv2d(4, 512, kernel_size=(1, 1), stride=(1, 1), bias=False)
        (lora_down_3): Conv2d(512, 4, kernel_size=(1, 1), stride=(1, 1), bias=False)
        (lora_up_3): Conv2d(4, 2048, kernel_size=(1, 1), stride=(1, 1), bias=False)
        (dropout): Dropout(p=0.1, inplace=False)
        (selector): Identity()
      )
      (2): LoRABottleneck(
        (conv1): Conv2d(2048, 512, kernel_size=(1, 1), stride=(1, 1), bias=False)
        (bn1): SyncBatchNorm(512, eps=1e-05, momentum=0.1, affine=True, track_running_stats=True)
        (conv2): Conv2d(512, 512, kernel_size=(3, 3), stride=(1, 1), padding=(1, 1), bias=False)
        (bn2): SyncBatchNorm(512, eps=1e-05, momentum=0.1, affine=True, track_running_stats=True)
        (conv3): Conv2d(512, 2048, kernel_size=(1, 1), stride=(1, 1), bias=False)
        (bn3): SyncBatchNorm(2048, eps=1e-05, momentum=0.1, affine=True, track_running_stats=True)
        (relu): ReLU(inplace=True)
        (lora_down_1): Conv2d(2048, 4, kernel_size=(1, 1), stride=(1, 1), bias=False)
        (lora_up_1): Conv2d(4, 512, kernel_size=(1, 1), stride=(1, 1), bias=False)
        (lora_down_2): Conv2d(512, 4, kernel_size=(3, 3), stride=(1, 1), padding=(1, 1), bias=False)
        (lora_up_2): Conv2d(4, 512, kernel_size=(1, 1), stride=(1, 1), bias=False)
        (lora_down_3): Conv2d(512, 4, kernel_size=(1, 1), stride=(1, 1), bias=False)
        (lora_up_3): Conv2d(4, 2048, kernel_size=(1, 1), stride=(1, 1), bias=False)
        (dropout): Dropout(p=0.1, inplace=False)
        (selector): Identity()
      )
    )
    (avgpool): AvgPool2d(kernel_size=16, stride=1, padding=0)
    (fc): Linear(in_features=2048, out_features=1000, bias=True)
  )
  (decode_head): ATMSingleHeadSeg(
    input_transform=None, ignore_index=255, align_corners=False
    (loss_decode): SegLossPlus(
      (criterion): SegPlusCriterion()
    )
    (dropout): Dropout2d(p=0.1, inplace=False)
    (input_proj_1): Linear(in_features=2048, out_features=512, bias=True)
    (proj_norm_1): LayerNorm((512,), eps=1e-05, elementwise_affine=True)
    (decoder_1): TPN_Decoder(
      (layers): ModuleList(
        (0): TPN_DecoderLayer(
          (self_attn): MultiheadAttention(
            (out_proj): NonDynamicallyQuantizableLinear(in_features=512, out_features=512, bias=True)
          )
          (linear1): Linear(in_features=512, out_features=2048, bias=True)
          (dropout): Dropout(p=0.1, inplace=False)
          (linear2): Linear(in_features=2048, out_features=512, bias=True)
          (norm1): LayerNorm((512,), eps=1e-05, elementwise_affine=True)
          (norm2): LayerNorm((512,), eps=1e-05, elementwise_affine=True)
          (norm3): LayerNorm((512,), eps=1e-05, elementwise_affine=True)
          (dropout1): Dropout(p=0.1, inplace=False)
          (dropout2): Dropout(p=0.1, inplace=False)
          (dropout3): Dropout(p=0.1, inplace=False)
          (multihead_attn): Attention(
            (q): Linear(in_features=512, out_features=512, bias=True)
            (k): Linear(in_features=512, out_features=512, bias=True)
            (v): Linear(in_features=512, out_features=512, bias=True)
            (attn_drop): Dropout(p=0.1, inplace=False)
            (proj): Linear(in_features=512, out_features=512, bias=True)
            (proj_drop): Dropout(p=0.0, inplace=False)
          )
        )
        (1): TPN_DecoderLayer(
          (self_attn): MultiheadAttention(
            (out_proj): NonDynamicallyQuantizableLinear(in_features=512, out_features=512, bias=True)
          )
          (linear1): Linear(in_features=512, out_features=2048, bias=True)
          (dropout): Dropout(p=0.1, inplace=False)
          (linear2): Linear(in_features=2048, out_features=512, bias=True)
          (norm1): LayerNorm((512,), eps=1e-05, elementwise_affine=True)
          (norm2): LayerNorm((512,), eps=1e-05, elementwise_affine=True)
          (norm3): LayerNorm((512,), eps=1e-05, elementwise_affine=True)
          (dropout1): Dropout(p=0.1, inplace=False)
          (dropout2): Dropout(p=0.1, inplace=False)
          (dropout3): Dropout(p=0.1, inplace=False)
          (multihead_attn): Attention(
            (q): Linear(in_features=512, out_features=512, bias=True)
            (k): Linear(in_features=512, out_features=512, bias=True)
            (v): Linear(in_features=512, out_features=512, bias=True)
            (attn_drop): Dropout(p=0.1, inplace=False)
            (proj): Linear(in_features=512, out_features=512, bias=True)
            (proj_drop): Dropout(p=0.0, inplace=False)
          )
        )
        (2): TPN_DecoderLayer(
          (self_attn): MultiheadAttention(
            (out_proj): NonDynamicallyQuantizableLinear(in_features=512, out_features=512, bias=True)
          )
          (linear1): Linear(in_features=512, out_features=2048, bias=True)
          (dropout): Dropout(p=0.1, inplace=False)
          (linear2): Linear(in_features=2048, out_features=512, bias=True)
          (norm1): LayerNorm((512,), eps=1e-05, elementwise_affine=True)
          (norm2): LayerNorm((512,), eps=1e-05, elementwise_affine=True)
          (norm3): LayerNorm((512,), eps=1e-05, elementwise_affine=True)
          (dropout1): Dropout(p=0.1, inplace=False)
          (dropout2): Dropout(p=0.1, inplace=False)
          (dropout3): Dropout(p=0.1, inplace=False)
          (multihead_attn): Attention(
            (q): Linear(in_features=512, out_features=512, bias=True)
            (k): Linear(in_features=512, out_features=512, bias=True)
            (v): Linear(in_features=512, out_features=512, bias=True)
            (attn_drop): Dropout(p=0.1, inplace=False)
            (proj): Linear(in_features=512, out_features=512, bias=True)
            (proj_drop): Dropout(p=0.0, inplace=False)
          )
        )
      )
    )
    (q_proj): Linear(in_features=4096, out_features=512, bias=True)
  )
  init_cfg={'type': 'Normal', 'std': 0.01, 'override': {'name': 'conv_seg'}}
)
2023-07-21 02:04:49,075 - mmseg - INFO - Loaded 1449 images
2023-07-21 02:04:49,076 - mmseg - INFO - Start running, host: ziqin@geovision2, work_dir: /media/data/ziqin/code/FewSegViT/work_dirs/voc_rn50
2023-07-21 02:04:49,076 - mmseg - INFO - Hooks will be executed in the following order:
…
