…
    0, 1, 2, 3, 4, 5, 6, 7, 8, 9, 10, 11, 12, 13, 14, 15, 16, 17, 18, 19, 20
]
num_classes = 16
eval_supp_dir = '/media/data/ziqin/data_fss/VOC2012'
eval_supp_path = '/media/data/ziqin/data_fss/VOC2012/ImageSets/FewShotSegmentation/val_supp_split_0_shot_1.txt'
pretrained = '/media/data/ziqin/pretrained/B_16.pth'
work_dir = './work_dirs_fss/voc_capl/vit_b_16_split_0'
gpu_ids = range(0, 1)

2023-10-23 17:53:38,899 - mmseg - INFO - Loaded 10582 images
2023-10-23 17:53:43,628 - mmseg - INFO - #Params: 99431425
2023-10-23 17:53:44,199 - mmseg - INFO - CAPLSegViT(
  (backbone): BaseImageNetViT(
    (patch_embedding): Conv2d(3, 768, kernel_size=(16, 16), stride=(16, 16))
    (positional_embedding): PositionalEmbedding1D()
    (transformer): Transformer(
      (blocks): ModuleList(
        (0): Block(
          (attn): MultiHeadedSelfAttention(
            (proj_q): Linear(in_features=768, out_features=768, bias=True)
            (proj_k): Linear(in_features=768, out_features=768, bias=True)
            (proj_v): Linear(in_features=768, out_features=768, bias=True)
            (drop): Dropout(p=0.1, inplace=False)
          )
          (proj): Linear(in_features=768, out_features=768, bias=True)
          (norm1): LayerNorm((768,), eps=1e-06, elementwise_affine=True)
          (pwff): PositionWiseFeedForward(
            (fc1): Linear(in_features=768, out_features=3072, bias=True)
            (fc2): Linear(in_features=3072, out_features=768, bias=True)
          )
          (norm2): LayerNorm((768,), eps=1e-06, elementwise_affine=True)
          (drop): Dropout(p=0.1, inplace=False)
        )
        (1): Block(
          (attn): MultiHeadedSelfAttention(
            (proj_q): Linear(in_features=768, out_features=768, bias=True)
            (proj_k): Linear(in_features=768, out_features=768, bias=True)
            (proj_v): Linear(in_features=768, out_features=768, bias=True)
            (drop): Dropout(p=0.1, inplace=False)
          )
          (proj): Linear(in_features=768, out_features=768, bias=True)
          (norm1): LayerNorm((768,), eps=1e-06, elementwise_affine=True)
          (pwff): PositionWiseFeedForward(
            (fc1): Linear(in_features=768, out_features=3072, bias=True)
            (fc2): Linear(in_features=3072, out_features=768, bias=True)
          )
          (norm2): LayerNorm((768,), eps=1e-06, elementwise_affine=True)
          (drop): Dropout(p=0.1, inplace=False)
        )
        (2): Block(
          (attn): MultiHeadedSelfAttention(
            (proj_q): Linear(in_features=768, out_features=768, bias=True)
            (proj_k): Linear(in_features=768, out_features=768, bias=True)
            (proj_v): Linear(in_features=768, out_features=768, bias=True)
            (drop): Dropout(p=0.1, inplace=False)
          )
          (proj): Linear(in_features=768, out_features=768, bias=True)
          (norm1): LayerNorm((768,), eps=1e-06, elementwise_affine=True)
          (pwff): PositionWiseFeedForward(
            (fc1): Linear(in_features=768, out_features=3072, bias=True)
            (fc2): Linear(in_features=3072, out_features=768, bias=True)
          )
          (norm2): LayerNorm((768,), eps=1e-06, elementwise_affine=True)
          (drop): Dropout(p=0.1, inplace=False)
        )
        (3): Block(
          (attn): MultiHeadedSelfAttention(
            (proj_q): Linear(in_features=768, out_features=768, bias=True)
            (proj_k): Linear(in_features=768, out_features=768, bias=True)
            (proj_v): Linear(in_features=768, out_features=768, bias=True)
            (drop): Dropout(p=0.1, inplace=False)
          )
          (proj): Linear(in_features=768, out_features=768, bias=True)
          (norm1): LayerNorm((768,), eps=1e-06, elementwise_affine=True)
          (pwff): PositionWiseFeedForward(
            (fc1): Linear(in_features=768, out_features=3072, bias=True)
            (fc2): Linear(in_features=3072, out_features=768, bias=True)
          )
          (norm2): LayerNorm((768,), eps=1e-06, elementwise_affine=True)
          (drop): Dropout(p=0.1, inplace=False)
        )
        (4): Block(
          (attn): MultiHeadedSelfAttention(
            (proj_q): Linear(in_features=768, out_features=768, bias=True)
            (proj_k): Linear(in_features=768, out_features=768, bias=True)
            (proj_v): Linear(in_features=768, out_features=768, bias=True)
            (drop): Dropout(p=0.1, inplace=False)
          )
          (proj): Linear(in_features=768, out_features=768, bias=True)
          (norm1): LayerNorm((768,), eps=1e-06, elementwise_affine=True)
          (pwff): PositionWiseFeedForward(
            (fc1): Linear(in_features=768, out_features=3072, bias=True)
            (fc2): Linear(in_features=3072, out_features=768, bias=True)
          )
          (norm2): LayerNorm((768,), eps=1e-06, elementwise_affine=True)
          (drop): Dropout(p=0.1, inplace=False)
        )
        (5): Block(
          (attn): MultiHeadedSelfAttention(
            (proj_q): Linear(in_features=768, out_features=768, bias=True)
            (proj_k): Linear(in_features=768, out_features=768, bias=True)
            (proj_v): Linear(in_features=768, out_features=768, bias=True)
            (drop): Dropout(p=0.1, inplace=False)
          )
          (proj): Linear(in_features=768, out_features=768, bias=True)
          (norm1): LayerNorm((768,), eps=1e-06, elementwise_affine=True)
          (pwff): PositionWiseFeedForward(
            (fc1): Linear(in_features=768, out_features=3072, bias=True)
            (fc2): Linear(in_features=3072, out_features=768, bias=True)
          )
          (norm2): LayerNorm((768,), eps=1e-06, elementwise_affine=True)
          (drop): Dropout(p=0.1, inplace=False)
        )
        (6): Block(
          (attn): MultiHeadedSelfAttention(
            (proj_q): Linear(in_features=768, out_features=768, bias=True)
            (proj_k): Linear(in_features=768, out_features=768, bias=True)
            (proj_v): Linear(in_features=768, out_features=768, bias=True)
            (drop): Dropout(p=0.1, inplace=False)
          )
          (proj): Linear(in_features=768, out_features=768, bias=True)
          (norm1): LayerNorm((768,), eps=1e-06, elementwise_affine=True)
          (pwff): PositionWiseFeedForward(
            (fc1): Linear(in_features=768, out_features=3072, bias=True)
            (fc2): Linear(in_features=3072, out_features=768, bias=True)
          )
          (norm2): LayerNorm((768,), eps=1e-06, elementwise_affine=True)
          (drop): Dropout(p=0.1, inplace=False)
        )
        (7): Block(
          (attn): MultiHeadedSelfAttention(
            (proj_q): Linear(in_features=768, out_features=768, bias=True)
            (proj_k): Linear(in_features=768, out_features=768, bias=True)
            (proj_v): Linear(in_features=768, out_features=768, bias=True)
            (drop): Dropout(p=0.1, inplace=False)
          )
          (proj): Linear(in_features=768, out_features=768, bias=True)
          (norm1): LayerNorm((768,), eps=1e-06, elementwise_affine=True)
          (pwff): PositionWiseFeedForward(
            (fc1): Linear(in_features=768, out_features=3072, bias=True)
            (fc2): Linear(in_features=3072, out_features=768, bias=True)
          )
          (norm2): LayerNorm((768,), eps=1e-06, elementwise_affine=True)
          (drop): Dropout(p=0.1, inplace=False)
        )
        (8): Block(
          (attn): MultiHeadedSelfAttention(
            (proj_q): Linear(in_features=768, out_features=768, bias=True)
            (proj_k): Linear(in_features=768, out_features=768, bias=True)
            (proj_v): Linear(in_features=768, out_features=768, bias=True)
            (drop): Dropout(p=0.1, inplace=False)
          )
          (proj): Linear(in_features=768, out_features=768, bias=True)
          (norm1): LayerNorm((768,), eps=1e-06, elementwise_affine=True)
          (pwff): PositionWiseFeedForward(
            (fc1): Linear(in_features=768, out_features=3072, bias=True)
            (fc2): Linear(in_features=3072, out_features=768, bias=True)
          )
          (norm2): LayerNorm((768,), eps=1e-06, elementwise_affine=True)
          (drop): Dropout(p=0.1, inplace=False)
        )
        (9): Block(
          (attn): MultiHeadedSelfAttention(
            (proj_q): Linear(in_features=768, out_features=768, bias=True)
            (proj_k): Linear(in_features=768, out_features=768, bias=True)
            (proj_v): Linear(in_features=768, out_features=768, bias=True)
            (drop): Dropout(p=0.1, inplace=False)
          )
          (proj): Linear(in_features=768, out_features=768, bias=True)
          (norm1): LayerNorm((768,), eps=1e-06, elementwise_affine=True)
          (pwff): PositionWiseFeedForward(
            (fc1): Linear(in_features=768, out_features=3072, bias=True)
            (fc2): Linear(in_features=3072, out_features=768, bias=True)
          )
          (norm2): LayerNorm((768,), eps=1e-06, elementwise_affine=True)
          (drop): Dropout(p=0.1, inplace=False)
        )
        (10): Block(
          (attn): MultiHeadedSelfAttention(
            (proj_q): Linear(in_features=768, out_features=768, bias=True)
            (proj_k): Linear(in_features=768, out_features=768, bias=True)
            (proj_v): Linear(in_features=768, out_features=768, bias=True)
            (drop): Dropout(p=0.1, inplace=False)
          )
          (proj): Linear(in_features=768, out_features=768, bias=True)
          (norm1): LayerNorm((768,), eps=1e-06, elementwise_affine=True)
          (pwff): PositionWiseFeedForward(
            (fc1): Linear(in_features=768, out_features=3072, bias=True)
            (fc2): Linear(in_features=3072, out_features=768, bias=True)
          )
          (norm2): LayerNorm((768,), eps=1e-06, elementwise_affine=True)
          (drop): Dropout(p=0.1, inplace=False)
        )
        (11): Block(
          (attn): MultiHeadedSelfAttention(
            (proj_q): Linear(in_features=768, out_features=768, bias=True)
            (proj_k): Linear(in_features=768, out_features=768, bias=True)
            (proj_v): Linear(in_features=768, out_features=768, bias=True)
            (drop): Dropout(p=0.1, inplace=False)
          )
          (proj): Linear(in_features=768, out_features=768, bias=True)
          (norm1): LayerNorm((768,), eps=1e-06, elementwise_affine=True)
          (pwff): PositionWiseFeedForward(
            (fc1): Linear(in_features=768, out_features=3072, bias=True)
            (fc2): Linear(in_features=3072, out_features=768, bias=True)
          )
          (norm2): LayerNorm((768,), eps=1e-06, elementwise_affine=True)
          (drop): Dropout(p=0.1, inplace=False)
        )
      )
    )
    (norm): LayerNorm((768,), eps=1e-06, elementwise_affine=True)
  )
  (decode_head): CAPLHeadSeg(
    input_transform=None, ignore_index=255, align_corners=False
    (loss_decode): CELoss(
      (criterion): CECriterion()
    )
    (dropout): Dropout2d(p=0.1, inplace=False)
    (ppm): PPM(
      (features): ModuleList(
        (0): Sequential(
          (0): AdaptiveAvgPool2d(output_size=1)
          (1): Conv2d(768, 192, kernel_size=(1, 1), stride=(1, 1), bias=False)
          (2): BatchNorm2d(192, eps=1e-05, momentum=0.1, affine=True, track_running_stats=True)
          (3): ReLU(inplace=True)
        )
        (1): Sequential(
          (0): AdaptiveAvgPool2d(output_size=2)
          (1): Conv2d(768, 192, kernel_size=(1, 1), stride=(1, 1), bias=False)
          (2): BatchNorm2d(192, eps=1e-05, momentum=0.1, affine=True, track_running_stats=True)
          (3): ReLU(inplace=True)
        )
        (2): Sequential(
          (0): AdaptiveAvgPool2d(output_size=3)
          (1): Conv2d(768, 192, kernel_size=(1, 1), stride=(1, 1), bias=False)
          (2): BatchNorm2d(192, eps=1e-05, momentum=0.1, affine=True, track_running_stats=True)
          (3): ReLU(inplace=True)
        )
        (3): Sequential(
          (0): AdaptiveAvgPool2d(output_size=6)
          (1): Conv2d(768, 192, kernel_size=(1, 1), stride=(1, 1), bias=False)
          (2): BatchNorm2d(192, eps=1e-05, momentum=0.1, affine=True, track_running_stats=True)
          (3): ReLU(inplace=True)
        )
      )
    )
    (cls): Sequential(
      (0): Conv2d(1536, 768, kernel_size=(3, 3), stride=(1, 1), padding=(1, 1), bias=False)
      (1): BatchNorm2d(768, eps=1e-05, momentum=0.1, affine=True, track_running_stats=True)
      (2): ReLU(inplace=True)
      (3): Dropout2d(p=0.1, inplace=False)
      (4): Conv2d(768, 768, kernel_size=(1, 1), stride=(1, 1))
    )
    (gamma_conv): Sequential(
      (0): Linear(in_features=1536, out_features=768, bias=False)
      (1): ReLU(inplace=True)
      (2): Linear(in_features=768, out_features=1, bias=True)
    )
  )
  init_cfg={'type': 'Normal', 'std': 0.01, 'override': {'name': 'conv_seg'}}
)
2023-10-23 17:53:45,614 - mmseg - INFO - Loaded 1449 images
2023-10-23 17:53:45,625 - mmseg - INFO - Start running, host: ziqin@geovision2, work_dir: /media/data/ziqin/code/FewSegViT/work_dirs_fss/voc_capl/vit_b_16_split_0
2023-10-23 17:53:45,626 - mmseg - INFO - Hooks will be executed in the following order:
…
