…
    59, 60, 61, 62, 63, 64, 65, 66, 67, 68, 69, 70, 71, 72, 73, 74, 75, 76, 77,
    78, 79, 80
]
num_classes = 61
pretrained = '/media/data/ziqin/pretrained/B_16.pth'
eval_supp_dir = '/media/data/ziqin/data_fss/coco2014'
eval_supp_path = '/media/data/ziqin/data_fss/coco2014/ImageSets/FewShotSegmentation/val_supp_split_0_shot_1.txt'
work_dir = './work_dirs/coco/'
gpu_ids = range(0, 1)

2023-09-23 15:01:41,855 - mmseg - INFO - Loaded 22829 images
2023-09-23 15:01:43,520 - mmseg - INFO - #Params: 117023232
2023-09-23 15:01:46,305 - mmseg - INFO - FewSegViT(
  (backbone): PromptImageNetViT(
    (patch_embedding): Conv2d(3, 768, kernel_size=(16, 16), stride=(16, 16))
    (positional_embedding): PositionalEmbedding1D()
    (transformer): Transformer(
      (blocks): ModuleList(
        (0): Block(
          (attn): MultiHeadedSelfAttention(
            (proj_q): Linear(in_features=768, out_features=768, bias=True)
            (proj_k): Linear(in_features=768, out_features=768, bias=True)
            (proj_v): Linear(in_features=768, out_features=768, bias=True)
            (drop): Dropout(p=0.1, inplace=False)
          )
          (proj): Linear(in_features=768, out_features=768, bias=True)
          (norm1): LayerNorm((768,), eps=1e-06, elementwise_affine=True)
          (pwff): PositionWiseFeedForward(
            (fc1): Linear(in_features=768, out_features=3072, bias=True)
            (fc2): Linear(in_features=3072, out_features=768, bias=True)
          )
          (norm2): LayerNorm((768,), eps=1e-06, elementwise_affine=True)
          (drop): Dropout(p=0.1, inplace=False)
        )
        (1): Block(
          (attn): MultiHeadedSelfAttention(
            (proj_q): Linear(in_features=768, out_features=768, bias=True)
            (proj_k): Linear(in_features=768, out_features=768, bias=True)
            (proj_v): Linear(in_features=768, out_features=768, bias=True)
            (drop): Dropout(p=0.1, inplace=False)
          )
          (proj): Linear(in_features=768, out_features=768, bias=True)
          (norm1): LayerNorm((768,), eps=1e-06, elementwise_affine=True)
          (pwff): PositionWiseFeedForward(
            (fc1): Linear(in_features=768, out_features=3072, bias=True)
            (fc2): Linear(in_features=3072, out_features=768, bias=True)
          )
          (norm2): LayerNorm((768,), eps=1e-06, elementwise_affine=True)
          (drop): Dropout(p=0.1, inplace=False)
        )
        (2): Block(
          (attn): MultiHeadedSelfAttention(
            (proj_q): Linear(in_features=768, out_features=768, bias=True)
            (proj_k): Linear(in_features=768, out_features=768, bias=True)
            (proj_v): Linear(in_features=768, out_features=768, bias=True)
            (drop): Dropout(p=0.1, inplace=False)
          )
          (proj): Linear(in_features=768, out_features=768, bias=True)
          (norm1): LayerNorm((768,), eps=1e-06, elementwise_affine=True)
          (pwff): PositionWiseFeedForward(
            (fc1): Linear(in_features=768, out_features=3072, bias=True)
            (fc2): Linear(in_features=3072, out_features=768, bias=True)
          )
          (norm2): LayerNorm((768,), eps=1e-06, elementwise_affine=True)
          (drop): Dropout(p=0.1, inplace=False)
        )
        (3): Block(
          (attn): MultiHeadedSelfAttention(
            (proj_q): Linear(in_features=768, out_features=768, bias=True)
            (proj_k): Linear(in_features=768, out_features=768, bias=True)
            (proj_v): Linear(in_features=768, out_features=768, bias=True)
            (drop): Dropout(p=0.1, inplace=False)
          )
          (proj): Linear(in_features=768, out_features=768, bias=True)
          (norm1): LayerNorm((768,), eps=1e-06, elementwise_affine=True)
          (pwff): PositionWiseFeedForward(
            (fc1): Linear(in_features=768, out_features=3072, bias=True)
            (fc2): Linear(in_features=3072, out_features=768, bias=True)
          )
          (norm2): LayerNorm((768,), eps=1e-06, elementwise_affine=True)
          (drop): Dropout(p=0.1, inplace=False)
        )
        (4): Block(
          (attn): MultiHeadedSelfAttention(
            (proj_q): Linear(in_features=768, out_features=768, bias=True)
            (proj_k): Linear(in_features=768, out_features=768, bias=True)
            (proj_v): Linear(in_features=768, out_features=768, bias=True)
            (drop): Dropout(p=0.1, inplace=False)
          )
          (proj): Linear(in_features=768, out_features=768, bias=True)
          (norm1): LayerNorm((768,), eps=1e-06, elementwise_affine=True)
          (pwff): PositionWiseFeedForward(
            (fc1): Linear(in_features=768, out_features=3072, bias=True)
            (fc2): Linear(in_features=3072, out_features=768, bias=True)
          )
          (norm2): LayerNorm((768,), eps=1e-06, elementwise_affine=True)
          (drop): Dropout(p=0.1, inplace=False)
        )
        (5): Block(
          (attn): MultiHeadedSelfAttention(
            (proj_q): Linear(in_features=768, out_features=768, bias=True)
            (proj_k): Linear(in_features=768, out_features=768, bias=True)
            (proj_v): Linear(in_features=768, out_features=768, bias=True)
            (drop): Dropout(p=0.1, inplace=False)
          )
          (proj): Linear(in_features=768, out_features=768, bias=True)
          (norm1): LayerNorm((768,), eps=1e-06, elementwise_affine=True)
          (pwff): PositionWiseFeedForward(
            (fc1): Linear(in_features=768, out_features=3072, bias=True)
            (fc2): Linear(in_features=3072, out_features=768, bias=True)
          )
          (norm2): LayerNorm((768,), eps=1e-06, elementwise_affine=True)
          (drop): Dropout(p=0.1, inplace=False)
        )
        (6): Block(
          (attn): MultiHeadedSelfAttention(
            (proj_q): Linear(in_features=768, out_features=768, bias=True)
            (proj_k): Linear(in_features=768, out_features=768, bias=True)
            (proj_v): Linear(in_features=768, out_features=768, bias=True)
            (drop): Dropout(p=0.1, inplace=False)
          )
          (proj): Linear(in_features=768, out_features=768, bias=True)
          (norm1): LayerNorm((768,), eps=1e-06, elementwise_affine=True)
          (pwff): PositionWiseFeedForward(
            (fc1): Linear(in_features=768, out_features=3072, bias=True)
            (fc2): Linear(in_features=3072, out_features=768, bias=True)
          )
          (norm2): LayerNorm((768,), eps=1e-06, elementwise_affine=True)
          (drop): Dropout(p=0.1, inplace=False)
        )
        (7): Block(
          (attn): MultiHeadedSelfAttention(
            (proj_q): Linear(in_features=768, out_features=768, bias=True)
            (proj_k): Linear(in_features=768, out_features=768, bias=True)
            (proj_v): Linear(in_features=768, out_features=768, bias=True)
            (drop): Dropout(p=0.1, inplace=False)
          )
          (proj): Linear(in_features=768, out_features=768, bias=True)
          (norm1): LayerNorm((768,), eps=1e-06, elementwise_affine=True)
          (pwff): PositionWiseFeedForward(
            (fc1): Linear(in_features=768, out_features=3072, bias=True)
            (fc2): Linear(in_features=3072, out_features=768, bias=True)
          )
          (norm2): LayerNorm((768,), eps=1e-06, elementwise_affine=True)
          (drop): Dropout(p=0.1, inplace=False)
        )
        (8): Block(
          (attn): MultiHeadedSelfAttention(
            (proj_q): Linear(in_features=768, out_features=768, bias=True)
            (proj_k): Linear(in_features=768, out_features=768, bias=True)
            (proj_v): Linear(in_features=768, out_features=768, bias=True)
            (drop): Dropout(p=0.1, inplace=False)
          )
          (proj): Linear(in_features=768, out_features=768, bias=True)
          (norm1): LayerNorm((768,), eps=1e-06, elementwise_affine=True)
          (pwff): PositionWiseFeedForward(
            (fc1): Linear(in_features=768, out_features=3072, bias=True)
            (fc2): Linear(in_features=3072, out_features=768, bias=True)
          )
          (norm2): LayerNorm((768,), eps=1e-06, elementwise_affine=True)
          (drop): Dropout(p=0.1, inplace=False)
        )
        (9): Block(
          (attn): MultiHeadedSelfAttention(
            (proj_q): Linear(in_features=768, out_features=768, bias=True)
            (proj_k): Linear(in_features=768, out_features=768, bias=True)
            (proj_v): Linear(in_features=768, out_features=768, bias=True)
            (drop): Dropout(p=0.1, inplace=False)
          )
          (proj): Linear(in_features=768, out_features=768, bias=True)
          (norm1): LayerNorm((768,), eps=1e-06, elementwise_affine=True)
          (pwff): PositionWiseFeedForward(
            (fc1): Linear(in_features=768, out_features=3072, bias=True)
            (fc2): Linear(in_features=3072, out_features=768, bias=True)
          )
          (norm2): LayerNorm((768,), eps=1e-06, elementwise_affine=True)
          (drop): Dropout(p=0.1, inplace=False)
        )
        (10): Block(
          (attn): MultiHeadedSelfAttention(
            (proj_q): Linear(in_features=768, out_features=768, bias=True)
            (proj_k): Linear(in_features=768, out_features=768, bias=True)
            (proj_v): Linear(in_features=768, out_features=768, bias=True)
            (drop): Dropout(p=0.1, inplace=False)
          )
          (proj): Linear(in_features=768, out_features=768, bias=True)
          (norm1): LayerNorm((768,), eps=1e-06, elementwise_affine=True)
          (pwff): PositionWiseFeedForward(
            (fc1): Linear(in_features=768, out_features=3072, bias=True)
            (fc2): Linear(in_features=3072, out_features=768, bias=True)
          )
          (norm2): LayerNorm((768,), eps=1e-06, elementwise_affine=True)
          (drop): Dropout(p=0.1, inplace=False)
        )
        (11): Block(
          (attn): MultiHeadedSelfAttention(
            (proj_q): Linear(in_features=768, out_features=768, bias=True)
            (proj_k): Linear(in_features=768, out_features=768, bias=True)
            (proj_v): Linear(in_features=768, out_features=768, bias=True)
            (drop): Dropout(p=0.1, inplace=False)
          )
          (proj): Linear(in_features=768, out_features=768, bias=True)
          (norm1): LayerNorm((768,), eps=1e-06, elementwise_affine=True)
          (pwff): PositionWiseFeedForward(
            (fc1): Linear(in_features=768, out_features=3072, bias=True)
            (fc2): Linear(in_features=3072, out_features=768, bias=True)
          )
          (norm2): LayerNorm((768,), eps=1e-06, elementwise_affine=True)
          (drop): Dropout(p=0.1, inplace=False)
        )
      )
    )
    (norm): LayerNorm((768,), eps=1e-06, elementwise_affine=True)
    (prompt_proj): Linear(in_features=768, out_features=768, bias=True)
    (prompt_norm): LayerNorm((768,), eps=1e-06, elementwise_affine=True)
    (prompt_dropout): Dropout(p=0.1, inplace=False)
  )
  (decode_head): ATMSingleHeadSeg(
    input_transform=None, ignore_index=255, align_corners=False
    (loss_decode): SegLossPlus(
      (criterion): SegPlusCriterion()
    )
    (dropout): Dropout2d(p=0.1, inplace=False)
    (input_proj_1): Identity()
    (proj_norm_1): Identity()
    (decoder_1): TPN_Decoder(
      (layers): ModuleList(
        (0): TPN_DecoderLayer(
          (self_attn): MultiheadAttention(
            (out_proj): NonDynamicallyQuantizableLinear(in_features=768, out_features=768, bias=True)
          )
          (linear1): Linear(in_features=768, out_features=3072, bias=True)
          (dropout): Dropout(p=0.1, inplace=False)
          (linear2): Linear(in_features=3072, out_features=768, bias=True)
          (norm1): LayerNorm((768,), eps=1e-05, elementwise_affine=True)
          (norm2): LayerNorm((768,), eps=1e-05, elementwise_affine=True)
          (norm3): LayerNorm((768,), eps=1e-05, elementwise_affine=True)
          (dropout1): Dropout(p=0.1, inplace=False)
          (dropout2): Dropout(p=0.1, inplace=False)
          (dropout3): Dropout(p=0.1, inplace=False)
          (multihead_attn): Attention(
            (q): Linear(in_features=768, out_features=768, bias=True)
            (k): Linear(in_features=768, out_features=768, bias=True)
            (v): Linear(in_features=768, out_features=768, bias=True)
            (attn_drop): Dropout(p=0.1, inplace=False)
            (proj): Linear(in_features=768, out_features=768, bias=True)
            (proj_drop): Dropout(p=0.0, inplace=False)
          )
        )
        (1): TPN_DecoderLayer(
          (self_attn): MultiheadAttention(
            (out_proj): NonDynamicallyQuantizableLinear(in_features=768, out_features=768, bias=True)
          )
          (linear1): Linear(in_features=768, out_features=3072, bias=True)
          (dropout): Dropout(p=0.1, inplace=False)
          (linear2): Linear(in_features=3072, out_features=768, bias=True)
          (norm1): LayerNorm((768,), eps=1e-05, elementwise_affine=True)
          (norm2): LayerNorm((768,), eps=1e-05, elementwise_affine=True)
          (norm3): LayerNorm((768,), eps=1e-05, elementwise_affine=True)
          (dropout1): Dropout(p=0.1, inplace=False)
          (dropout2): Dropout(p=0.1, inplace=False)
          (dropout3): Dropout(p=0.1, inplace=False)
          (multihead_attn): Attention(
            (q): Linear(in_features=768, out_features=768, bias=True)
            (k): Linear(in_features=768, out_features=768, bias=True)
            (v): Linear(in_features=768, out_features=768, bias=True)
            (attn_drop): Dropout(p=0.1, inplace=False)
            (proj): Linear(in_features=768, out_features=768, bias=True)
            (proj_drop): Dropout(p=0.0, inplace=False)
          )
        )
        (2): TPN_DecoderLayer(
          (self_attn): MultiheadAttention(
            (out_proj): NonDynamicallyQuantizableLinear(in_features=768, out_features=768, bias=True)
          )
          (linear1): Linear(in_features=768, out_features=3072, bias=True)
          (dropout): Dropout(p=0.1, inplace=False)
          (linear2): Linear(in_features=3072, out_features=768, bias=True)
          (norm1): LayerNorm((768,), eps=1e-05, elementwise_affine=True)
          (norm2): LayerNorm((768,), eps=1e-05, elementwise_affine=True)
          (norm3): LayerNorm((768,), eps=1e-05, elementwise_affine=True)
          (dropout1): Dropout(p=0.1, inplace=False)
          (dropout2): Dropout(p=0.1, inplace=False)
          (dropout3): Dropout(p=0.1, inplace=False)
          (multihead_attn): Attention(
            (q): Linear(in_features=768, out_features=768, bias=True)
            (k): Linear(in_features=768, out_features=768, bias=True)
            (v): Linear(in_features=768, out_features=768, bias=True)
            (attn_drop): Dropout(p=0.1, inplace=False)
            (proj): Linear(in_features=768, out_features=768, bias=True)
            (proj_drop): Dropout(p=0.0, inplace=False)
          )
        )
      )
    )
    (q_proj): Linear(in_features=1536, out_features=768, bias=True)
  )
  init_cfg={'type': 'Normal', 'std': 0.01, 'override': {'name': 'conv_seg'}}
)
2023-09-23 15:01:57,185 - mmseg - INFO - Loaded 2000 images
2023-09-23 15:01:57,191 - mmseg - INFO - Start running, host: ziqin@geovision2, work_dir: /media/data/ziqin/code/FewSegViT/work_dirs/coco
2023-09-23 15:01:57,192 - mmseg - INFO - Hooks will be executed in the following order:
…
